src/rm_omni/scripts/model/FastestDetcolor.onnx (onnx, 955556 bytes, 140 tensors)

760 f4 [24, 3, 3, 3]
000000 89 c0 73 be 8b d5 18 be 49 10 05 be 40 5e 1f be
       -0.23803915 -0.1492521 -0.12994494 -0.15563297
000010 e8 69 e2 bd a1 59 e4 bd 4f 29 41 be d6 f7 22 be
       -0.11055356 -0.11149908 -0.18863414 -0.15914854
000020 22 f6 14 be 99 23 65 be b5 5e 06 be d5 47 00 be
       -0.14547017 -0.2237686 -0.13122065 -0.12527402
000030 42 fb 78 be 27 50 4a be cd 91 21 be ab cf 8e be
       -0.24314597 -0.19757138 -0.15778275 -0.27892813
000040 6f c9 4e be 7d 4a 26 be 44 13 81 3e 5f 51 5b 3e
       -0.20194028 -0.16239353 0.2521001 0.2141776
000050 da b8 81 3e 45 62 90 3e 37 8d 5b 3e b7 6d 30 3e
       0.25336343 0.28199974 0.21440588 0.17229353
000060 b7 aa bf 3e e8 da a7 3e 6a 8a 73 3e f7 71 0a 3f
       0.37434933 0.327842 0.2378327 0.54080147
000070 4b b2 65 be 6a d1 96 be 54 28 86 be f2 fd 1f bf
       -0.22431295 -0.29456645 -0.26202643 -0.62496865
000080 d5 6e 33 3e f9 08 32 bd 0a 08 11 3e 84 cc 0c 3f
       0.17522748 -0.04346559 0.14163223 0.54999566
000090 49 3d 7e 3f 0c 26 2c be 11 e8 d1 be ba ee 9a be
       0.99312264 -0.16811389 -0.40997365 -0.3026026
0000a0 a1 df 8e bf db b4 16 be d5 d2 bb be e4 63 27 3c
       -1.1161996 -0.14717428 -0.3668429 0.010216687
0000b0 6e 92 80 3f e9 e4 64 3f 24 78 1d 3e 85 06 27 be
       1.0044687 0.8941179 0.15377861 -0.16311081
0000c0 09 f2 8b bd 1e d6 67 bf 71 82 d7 be 5e 19 de be
       -0.06833274 -0.9056109 -0.42091706 -0.4337873
0000d0 f5 42 88 be 94 0e ea 3e 2b 17 2f 3e 32 78 0e 3e
       -0.26613584 0.45714247 0.17098682 0.13913038
0000e0 e3 ba 28 3e a7 e6 d1 3d 51 e6 43 3c fd d8 a2 3d
       0.16477542 0.102490716 0.011956767 0.079515435
0000f0 0b fb 15 3e e6 7c b6 3d 80 b1 df 3d 51 c2 92 be
       0.14646547 0.08910541 0.10922527 -0.28663877
000100 5c 6c a4 be ec 26 56 be 54 a4 a7 be cd 65 c7 be
       -0.32113922 -0.20913285 -0.3274256 -0.38944855
000110 2e e1 73 be 9f 90 7c be 09 27 8f be 70 41 1f be
       -0.23816368 -0.24664544 -0.2795947 -0.15552306
000120 ff f8 20 3d ba 8e fa 3d f0 d7 3c 3b ad e7 3f 3e
       0.03929996 0.12234254 0.0028815232 0.18740721
000130 c7 44 8c 3e 89 d0 b2 3d 7d 96 b9 3c 1f 4e 94 3d
       0.27396223 0.08731181 0.022654766 0.07241463
000140 12 14 d7 bc a3 f1 d6 bd 04 58 17 be d6 31 28 bd
       -0.026254687 -0.10495307 -0.14779669 -0.041063152
000150 8f 5e 0b be 6d e0 35 be 01 be a0 bd c8 ec 05 bd
       -0.1361029 -0.17761393 -0.0784874 -0.032696515
000160 13 df 92 bd 43 34 29 3c 90 eb 39 3e e0 ed 2e 3e
       -0.07171454 0.010327402 0.18156266 0.1708293
000170 28 b6 0f 3e 58 1f 24 3e 9f 61 23 3e aa 00 00 3e
       0.14034331 0.16027582 0.15955208 0.12500253
000180 12 e7 12 3e 2f 2b f3 3d 5b e5 d5 3d 70 16 23 bd
       0.14345959 0.11873471 0.10444137 -0.03981632
000190 6a 71 82 bc 3e 42 df bc ff 9b b1 bc c7 6e c2 3c
       -0.01592322 -0.027253266 -0.02168083 0.023734463
0001a0 3a ad 70 bb 3e 3a 82 bd d9 9f 07 bd a1 e2 3e bd
       -0.0036724345 -0.06358765 -0.033111427 -0.04660285
0001b0 7b de 05 3f 60 42 98 be a8 6f a0 be b6 2f c6 3e
       0.52292603 -0.2973814 -0.31335187 0.38708276
0001c0 58 e1 8b bd b2 93 a1 be 1c be f5 3e 28 67 1e bd
       -0.0683009 -0.31557995 0.47996604 -0.038672596
0001d0 5f 81 b3 be a9 af 81 3f 72 9a e8 be 76 78 2c bf
       -0.3505964 1.0131732 -0.45430332 -0.6737131
0001e0 30 b2 5b 3f 2a 73 dc bd 96 38 1e bf 7a f7 61 3f
       0.8581877 -0.10764153 -0.61805093 0.88268244
0001f0 44 29 eb 3b b6 3f 0d bf c9 de 57 3f 00 dc f3 be
       0.00717655 -0.5517534 0.8432432 -0.47628784
000200 fc f4 11 bf 3c a0 26 3f 20 6c 47 be 9b c3 07 bf
       -0.5701444 0.6508825 -0.1947484 -0.53032845
000210 82 94 58 3f 9d 75 c9 bc a6 ab 15 bf 30 58 74 3a
       0.84601605 -0.024592215 -0.5846504 0.0009321002
000220 59 20 ed 3d e1 bb 8f 3c cf 87 98 3d d9 05 de 3d
       0.115784355 0.017545642 0.074477784 0.10840959
000230 ea 41 96 3d b2 69 94 3d 6c 58 24 3e 10 5d c8 3d
       0.07336791 0.07246722 0.16049355 0.09783375
000240 1e 18 1c 3d 76 36 fc 3d be d6 74 3d 2d d6 9d 3d
       0.038108937 0.12315075 0.059775107 0.077068664
000250 56 56 91 3d 98 b4 59 3d 1f 79 f7 3c fb a0 ba 3d
       0.070965454 0.053150743 0.030209122 0.09112736
000260 6f 08 30 3d c6 0b 74 3d cf a1 1b 3e 95 11 f4 3d
       0.042976793 0.05958154 0.15198444 0.11917416
000270 44 a8 68 3d ad b5 8f 3d 8c 54 9b 3d fc 28 e5 bc
       0.056801096 0.07017074 0.075844854 -0.027973644
000280 fc e2 b7 3d 15 87 7a 3d 7f 29 20 bf 38 37 30 bd
       0.08978841 0.06116398 -0.6256332 -0.04302141
000290 dd 11 3f 3f d9 94 28 bf 02 74 ef bc 94 7f 4d 3f
       0.7463663 -0.65852123 -0.029230122 0.80272794
0002a0 2e 2b 4f bf 01 e0 dc be f0 69 68 3f 6b 46 7f bf
       -0.8092526 -0.4313965 0.9078665 -0.99716824
0002b0 38 fe 34 be b8 8c 90 3f 55 9d 76 bf f0 56 7a be
       -0.17675102 1.1292944 -0.9633382 -0.24447227
0002c0 d4 19 92 3f 2f 26 71 bf 26 27 31 bf 52 cd 93 3f
       1.1414132 -0.9419889 -0.6920036 1.1547034
0002d0 6f 78 13 bf be 2c 70 be 8e 74 39 3f dc 38 cc be
       -0.5760564 -0.23454568 0.72443473 -0.3988713
0002e0 49 27 9e be ad 73 22 3f 2b ae 05 bf ff dd 35 bf
       -0.30889347 0.6345776 -0.52218884 -0.71041864
0002f0 12 2a 3d 3f c9 ae d9 3d e2 b9 e1 3d 6b 04 a4 3d
       0.7389232 0.10629041 0.110217825 0.08008655
000300 6f b8 f5 bd 7c ef 25 bd 00 d4 8d 3c 62 ac 47 bd
       -0.119980685 -0.040511593 0.017313004 -0.04874838
000310 5d 98 f2 3c 5b d7 2a 3e dc b0 16 3e d3 71 6d bc
       0.029613668 0.16683714 0.14715904 -0.01449247
000320 f3 11 2f be a6 83 3f 3e 88 e9 a1 bd 0d 53 1e be
       -0.17096691 0.18702564 -0.07905871 -0.15461369
000330 02 34 b0 3e da ad 74 bc 65 63 07 bd 4b c9 90 3e
       0.3441468 -0.014934028 -0.033053774 0.28278574
000340 bb a1 c6 3d 2f aa 5e be b8 ad 44 3e 71 6b 60 bd
       0.096988164 -0.21744607 0.19206893 -0.054789964
000350 d0 b2 26 be 16 f5 b5 3e 1e 59 db 3c a5 da 13 3d
       -0.16279149 0.35538548 0.026775893 0.036097188
000360 af d6 da bd 6a d2 ae be a9 3c dd bd dc 16 18 3e
       -0.10685479 -0.34144908 -0.10802586 0.1485247
000370 46 d5 24 bd 54 df b0 be 8c f4 26 3e 3c ee 08 3f
       -0.040242456 -0.34545386 0.16304225 0.53488517
000380 fb 0b b2 3e 24 9a c5 be de 10 57 bf da d2 09 bf
       0.34774765 -0.38594162 -0.8401011 -0.5383736
000390 e4 08 9c 3e 33 dc 9b bd 16 12 f9 be b7 31 ef 3e
       0.30475533 -0.07610359 -0.4864661 0.46717617
0003a0 28 aa 63 3f e1 a8 24 3f 7a 45 1c bf 50 6f 8e bf
       0.8893151 0.6432019 -0.6104351 -1.112772
0003b0 5f 86 7b bf 67 1d c3 3e 77 a2 19 be 8e 2d 2e bf
       -0.9825191 0.3810837 -0.15003382 -0.6803826
0003c0 ac 82 7b 3f 34 05 9c 3f e9 c1 73 3f 19 df 87 bf
       0.98246264 1.2189088 0.9521776 -1.0614959
0003d0 62 e9 04 3d 14 b1 81 3e a2 c2 9b 3d 27 57 74 3f
       0.032449134 0.25330412 0.07605483 0.95445484
0003e0 eb ac 3e 3e cd fe 1b 3e 1d dd 4b 3e 68 6d 4d bf
       0.1862065 0.15233918 0.19908567 -0.80245066
0003f0 47 63 a5 bf e7 17 8c 3e 62 81 65 3e 82 25 6e 3e
       -1.2920922 0.27361986 0.22412637 0.23256496

761 f4 [24]
000000 f4 d0 32 3f da 17 46 3f 90 25 2f 3f e6 6e b2 3e
       0.6985009 0.77380145 0.6841669 0.34850234
000010 1f 47 f6 3d 61 64 83 3e 8c 6e a5 3e db 1b 88 bf
       0.12025284 0.2566252 0.32310903 -1.0633501
000020 5b b0 ce 3d 3a a3 ff 3d 85 2a 1f 3d e1 aa 80 ba
       0.10092231 0.12482305 0.03885891 -0.0009816551
000030 13 6c a0 3e 06 55 59 3f 2e 42 5c 3e 8e 18 0b bb
       0.31332454 0.8489536 0.2150962 -0.0021224353
000040 06 de 30 3f 00 27 41 bc 92 91 09 3e c6 93 e2 3d
       0.6908878 -0.0117890835 0.13434437 0.11063342
000050 d4 88 6e bc ae 10 bc 3f d0 c8 d2 3d fb b6 a9 3e
       -0.01455899 1.469259 0.10292208 0.33147416

763 f4 [24, 1, 3, 3]
000000 8d 13 14 be 74 ee 30 3e 85 b9 97 3e eb 4c 82 bf
       -0.14460583 0.17278463 0.29633728 -1.0179724
000010 25 11 0b be b9 90 a4 3f 7c b7 a7 bf 9d 5e e6 be
       -0.13580759 1.2856666 -1.310287 -0.4499406
000020 fd 17 9c 3f ea b4 18 3e 24 67 28 bd c9 df ea bd
       1.2194821 0.14912763 -0.041113988 -0.11468465
000030 01 76 80 3e 72 be 37 3e 8d e0 49 bc af 20 93 3e
       0.2509003 0.17943743 -0.0123216035 0.28735873
000040 8e 56 2a 3e 29 b9 1f be 3e 63 a9 bc 08 44 36 bd
       0.1663458 -0.15597977 -0.020677205 -0.044498473
000050 6c a7 ab be 97 86 9a 3c 90 5f 85 3d 06 23 88 3e
       -0.3352617 0.018863006 0.06512368 0.2658922
000060 52 e1 a6 be 19 bc 90 3e ae f2 c7 3f 28 04 2a be
       -0.3259378 0.28268507 1.5620935 -0.16603148
000070 ff 79 65 3d b2 a8 52 bb 9f cb 16 3f 37 43 bd 3e
       0.056024548 -0.0032144007 0.5890445 0.36965343
000080 a1 72 f9 bc 6c a4 9e 3f 72 87 17 3f ea 58 ae be
       -0.030450167 1.2393928 0.5919105 -0.3405221
000090 04 49 f4 3c 3e a2 1c 3d 63 e5 bd bc 4f e9 4b 3d
       0.029819973 0.038240664 -0.02318067 0.049783047
0000a0 da 07 fd 3c 6c e1 79 bd 97 8d 09 3d 40 1d a3 bd
       0.030887533 -0.061005995 0.033582296 -0.07964563
0000b0 25 38 73 be 7e 9c 77 bd 53 fc 39 bd 63 88 47 3c
       -0.23751886 -0.060451977 -0.04540665 0.012178513
0000c0 7c ba 06 bf bf f0 46 3b 41 b1 c1 3e 7d a8 00 bf
       -0.526283 0.0030355898 0.37830546 -0.5025709
0000d0 32 e0 38 bd c5 25 f0 3e e8 27 dc 3a c9 10 25 3d
       -0.045135684 0.46903816 0.0016796561 0.04029921
0000e0 04 2b fc bc c2 83 dc 3c d7 70 cb 3b 03 ee 60 bd
       -0.03078223 0.026918296 0.00620852 -0.054914486
0000f0 44 ee 32 bc ae 8c 1d bd 00 52 04 be b9 4a 3f be
       -0.010921065 -0.03846424 -0.12921906 -0.18680848
000100 e5 71 ee be c9 73 22 bd 57 3d ca be 24 4b 92 3d
       -0.4657127 -0.039661203 -0.39499924 0.07143238
000110 73 2f bb 3f 2e 7a 60 be e5 6d f5 3f 12 e4 45 40
       1.4623855 -0.21921608 1.9174162 3.0920453
000120 d2 69 05 bd 51 aa 5b bd 12 a5 63 3c 6e 4c 31 bd
       -0.03257162 -0.053629223 0.013894336 -0.04328578
000130 d6 bb a3 bc 12 1b c6 3d f9 4f cc 3a 5e 39 4e 3d
       -0.019987028 0.09673132 0.0015587799 0.05034768
000140 8f d8 99 3e 75 a1 1a bb 7b f8 cc bb a9 17 45 bb
       0.30048034 -0.002359477 -0.006255207 -0.0030073917
000150 1e 03 8a ba 09 1a af bb 03 bf 20 bb 98 37 7e ba
       -0.0010529493 -0.00534368 -0.0024527914 -0.0009697615
000160 3a 9d 47 ba f2 fb f0 bb 57 66 95 bc f9 c6 75 bc
       -0.0007614676 -0.007354253 -0.018237276 -0.015001052
000170 74 d8 2f b9 71 0e e6 bc 8e 42 50 be a5 49 be bd
       -0.00016769936 -0.028083058 -0.20337889 -0.0929139
000180 45 e6 dd bd 93 03 2f bf 43 74 46 bf b2 0e 83 aa
       -0.10834936 -0.6836483 -0.7752115 -2.3280472e-13
000190 11 aa ad aa 67 07 c7 aa 2d 91 3d aa 27 c6 1a aa
       -3.084898e-13 -3.5354638e-13 -1.683694e-13 -1.3746696e-13
0001a0 12 5b 81 2a 9a b0 85 aa 2c 96 a5 2a 2d 06 b9 2a
       2.2978196e-13 -2.3748088e-13 2.941409e-13 3.2866887e-13
0001b0 49 de b7 3d cb 64 85 be 34 de 4b 3e 18 ec 87 bc
       0.089779444 -0.2605346 0.19908983 -0.01659207
0001c0 10 59 8d bf a0 3e 69 bf 75 e8 b5 bd 32 6b 2a bf
       -1.1042805 -0.91111183 -0.08882228 -0.6656982
0001d0 c5 1d 54 bf 4d 38 2e bd 43 18 b5 bd 5e 3c 28 bd
       -0.82857925 -0.04253416 -0.08842518 -0.041073196
0001e0 22 3a 8f bd 75 2d 0f be 20 d0 2a be 88 b5 72 3d
       -0.0699351 -0.13982184 -0.16680956 0.059255153
0001f0 38 71 bf bd 13 c3 d1 bd 26 df c1 ba 27 70 45 3d
       -0.09347767 -0.102422856 -0.0014791235 0.04820266
000200 d3 70 6a 3c bd 68 1f 3d 5b d1 d2 3c 91 af db bd
       0.014309126 0.038918246 0.025734594 -0.10726846
000210 8c 9c 8a 3c 8e 07 cc bb 0f af 64 be 40 0e de 2a
       0.01692035 -0.0062264865 -0.22332405 3.944501e-13
000220 65 86 b3 28 f9 ec 8b aa c6 1a 33 aa 86 83 c8 aa
       1.9931276e-14 -2.4855793e-13 -1.5907683e-13 -3.56184e-13
000230 3c 5a 6f 28 75 bb 02 ab a8 6b a7 2a 76 50 a4 a9
       1.3286732e-14 -4.6445427e-13 2.973986e-13 -7.297021e-14
000240 44 d1 1a 3e 62 58 81 bd de 44 02 be 83 85 5c 3e
       0.15118891 -0.06315686 -0.12721583 0.21535306
000250 51 ae 86 be 42 75 0f bf a0 63 71 3e 91 fc d5 be
       -0.26304868 -0.56038296 0.2357316 -0.41794255
000260 f8 4d 5f bf a8 e7 c3 be 48 95 29 3f 0c 57 1a 3f
       -0.87228346 -0.38262677 0.6624341 0.60289073
000270 f9 12 e6 bf e8 60 2c 3f 54 eb 42 40 3f 01 0f bf
       -1.797454 0.6733537 3.0456133 -0.55861276
000280 da 31 0f 3f c0 d0 36 40 0b ce 07 bd f7 ad 66 bd
       0.5593544 2.856491 -0.033155482 -0.05631825
000290 9c 40 aa 3b dc 09 80 bd 4c ac 4c be e9 b3 26 be
       0.0051956903 -0.062518805 -0.19987601 -0.16279568
0002a0 b9 d7 fe bc e0 4a 06 be 02 68 d1 bd 55 0c 81 3d
       -0.031108724 -0.131145 -0.10224916 0.0630118
0002b0 b1 a6 0b 3e 07 ca 9a 3d 2d 6a e4 3d d3 64 a3 3d
       0.13637806 0.07558065 0.11153064 0.07978215
0002c0 1d 0f e9 bd 9c 48 55 3d 22 05 a6 bd 85 13 b0 be
       -0.11379836 0.0520712 -0.08106448 -0.34389892
0002d0 16 6e 6a 3d 03 71 8f 3c e1 1d 97 3c 66 97 f8 3d
       0.057233892 0.017509943 0.018446865 0.12138252
0002e0 88 24 cb 3c 1a 24 3f bd 81 85 e4 3d 43 de d7 3c
       0.024797693 -0.04666529 0.11158276 0.0263511
0002f0 11 15 26 bc 92 3c 9a 3d 13 04 ce bc 75 b5 3e be
       -0.010136859 0.07531084 -0.025148427 -0.18623908
000300 39 f9 71 3f cf a9 f5 bc 2b 8b 83 bf f0 a5 59 3f
       0.9452091 -0.029988198 -1.0276846 0.85018826
000310 c8 c6 8f 3d f1 cf 69 bf 56 c3 c1 bc 39 c4 96 3b
       0.070203364 -0.9133292 -0.023652714 0.0046010283
000320 d4 42 88 3c fc d9 06 3d 8b 94 13 bd 4a d8 8c bd
       0.016633429 0.03292273 -0.036030333 -0.06877191
000330 21 8c 81 3c f7 53 be bd f7 ea 48 be 4b d0 d3 b9
       0.015813889 -0.09293359 -0.19620882 -0.00040400247
000340 ad d8 a7 3d fe 44 0f 3d e7 75 11 3c d3 03 43 3e
       0.081956245 0.034977905 0.008878208 0.19044428
000350 b7 eb 07 3e b2 f7 28 bd 97 ab de 3d f9 2e 86 3d
       0.13273512 -0.041251846 0.10872572 0.06551928

764 f4 [24]
000000 99 50 c3 3c 71 13 c9 be f9 25 4f bf d5 40 7f bf
       0.023842143 -0.39272645 -0.80917317 -0.997083
000010 c8 35 9f 3d 0f db 64 3e 6b ce 6c 3d 0e e0 53 bc
       0.0777393 0.22349189 0.057814043 -0.012931837
000020 9c dc cf bd 51 a9 43 3c e9 62 88 3e b8 8e c3 33
       -0.101495 0.011942224 0.26637962 9.1063555e-08
000030 8b 8d e2 3e c4 8b cb 3e c6 57 62 3d 27 8d c0 33
       0.44248614 0.3975507 0.05525949 8.966372e-08
000040 09 ce b4 3f 99 b5 27 bd 3d 93 4c 3e ad d9 4b 3c
       1.4125377 -0.04094467 0.19978042 0.012442035
000050 c1 de 3a bd 0e cb 85 3e fb 30 22 3e 39 d9 47 be
       -0.04562259 0.2613148 0.15838997 -0.19516458

766 f4 [24, 24, 1, 1]
000000 b2 dd a9 3b 06 7b 07 3e 73 6d b4 3d a9 4b 09 3d
       0.005183899 0.13230523 0.08809938 0.03351942
000010 25 7f 98 bb 93 4d 94 bd 46 9a 98 3d 33 ec 81 bb
       -0.0046538287 -0.072413586 0.074513 -0.0039649247
000020 54 b4 7c 3b a2 e3 0a 3d e5 12 28 bb a2 3a 90 ab
       0.0038559632 0.033908494 -0.0025646028 -1.0248089e-12
000030 ed 88 28 bf 1d 1e f7 bd ca b6 15 bd 76 1e 84 ab
       -0.6583393 -0.120662905 -0.036551274 -9.387619e-13
000040 af 31 a5 bd 0d e5 95 3e e0 c2 8e bd 16 e0 62 3d
       -0.08066117 0.29276314 -0.06970763 0.055389486
000050 2a fb c2 3d ae 68 2f bc 27 19 96 bd f5 89 dd 3d
       0.09520562 -0.01070611 -0.07329016 0.10817329
000060 08 6d 8e bd d1 f6 12 3e fd 7f c6 bb 2c a5 ff bb
       -0.0695439 0.14351965 -0.006057738 -0.0078016724
000070 f0 2b 1c be 53 03 be 3d 81 70 04 be dd a0 36 3e
       -0.15251136 0.09277978 -0.12933542 0.17834802
000080 ce 73 b2 bd c2 31 fc bc 3f 94 74 3f c6 69 3b 2c
       -0.08713494 -0.030785445 0.95538706 2.6633014e-12
000090 b0 f7 0b be b1 5d 1f be 0d ea 75 bd 5a 6a 86 2b
       -0.13668704 -0.15563084 -0.06003766 9.550791e-13
0000a0 f6 5e 72 be aa 3c 80 3d 23 2e 53 bd e2 db d4 3c
       -0.23669037 0.06261571 -0.05155767 0.025983755
0000b0 73 6c f3 bc 94 e8 dc 3c 0f eb 86 bd 88 02 9d 3d
       -0.029714799 0.02696637 -0.065878026 0.076664984
0000c0 07 d0 00 3e 51 aa 7d bc 1d 54 d8 3e 34 6a 1b 3d
       0.12579356 -0.015482501 0.42251673 0.03794308
0000d0 d1 e0 f0 bc 68 80 20 bd 98 e3 3e bd 4d 14 9c bc
       -0.029404076 -0.039184958 -0.04660377 -0.019052649
0000e0 3e b3 c9 ba 2d 6e 3b 3d 0d f3 c2 be 6b 10 89 ab
       -0.0015388501 0.04575937 -0.38076058 -9.738992e-13
0000f0 19 a7 d2 bd 15 a5 1e bc 8e 72 1b bc 04 c2 ef aa
       -0.102857776 -0.009682913 -0.009487761 -4.2589554e-13
000100 10 2b e4 be cc ba 1c bd c5 f0 3d 3d a4 00 02 3c
       -0.44564104 -0.03826408 0.046372194 0.007934723
000110 c6 ec 9c bd 91 e8 80 3c 77 1a 7c bd 21 58 8c bd
       -0.076623484 0.015735896 -0.061548676 -0.06852747
000120 eb ef 6b bd 56 ce 7f be b4 4c 40 3c 03 b7 f4 3c
       -0.05760185 -0.24981055 0.011737037 0.029872423
000130 9f 37 30 3d 9f d0 a8 3c a7 aa 4c 3e d3 6a c0 3d
       0.043021794 0.02060729 0.19986974 0.09395375
000140 97 2a a8 3d b3 42 5b 3d a7 a5 f5 bc a0 6c 7f ab
       0.08211248 0.053530406 -0.029986216 -9.0744946e-13
000150 1e 58 c2 3d 52 66 c9 3e 81 5c 23 be 9a ec af 2b
       0.09489463 0.39335877 -0.15953256 1.2500168e-12
000160 62 95 4a bd 6f 68 8d 3d 09 a4 12 bf c3 31 bc bc
       -0.04945887 0.06904685 -0.5728155 -0.022972947
000170 15 58 d8 3b 09 96 0a ba c9 9b 1d 3d 0d 15 d8 be
       0.006602297 -0.0005286639 0.038478646 -0.4220356
000180 3e 05 07 3e b9 2c ca bd 2b 64 0c 3d f8 5c 91 3f
       0.13185593 -0.098718114 0.034275215 1.1356497
000190 a6 32 02 be 80 e9 09 bc 21 b4 a4 3c 85 79 b6 3d
       -0.12714633 -0.008417487 0.020105423 0.08909897
0001a0 8c 8e 50 bb c6 31 41 bd 6c a1 17 3e e6 bd 02 2b
       -0.0031823246 -0.04716661 0.14807671 4.6448815e-13
0001b0 09 20 ca bc ac c2 e8 3d c6 cb 54 3d 1a b4 31 ab
       -0.024673479 0.11365256 0.051952146 -6.3132973e-13
0001c0 b0 fe 9f 3d ef cf b0 3a 63 11 c4 bd 14 95 b1 bb
       0.0781225 0.0013489703 -0.09573629 -0.005419383
0001d0 cf c6 1b bd c2 50 0d be 82 9c f5 bc d6 9f db 3c
       -0.038031396 -0.13800338 -0.029981855 0.026809614
0001e0 b2 fa b2 3e c3 0c 34 3e d9 53 d6 3d 83 0e 78 bd
       0.3495689 0.17582993 0.104652114 -0.060560714
0001f0 66 d0 8c bd 97 c6 d0 3e cf c2 83 be 2d dc 11 3e
       -0.06875686 0.40776512 -0.25734565 0.14244147
000200 f2 e8 1e bd 6c 81 c5 bd 5b 9a 9f bd f9 71 10 ac
       -0.038796373 -0.09643826 -0.07793113 -2.0526898e-12
000210 a7 1a 98 3d 17 52 87 be 70 4a ac 3d 30 bb 84 ab
       0.074269585 -0.26429817 0.08412635 -9.431119e-13
000220 f8 33 b3 3d b1 b3 4b bd 68 7c a9 3e 51 4b 4c 3d
       0.087501466 -0.049731914 0.33102727 0.049876515
000230 dc fb d5 3c 2d 42 fc 3e b9 bf a8 bd 15 b7 72 3e
       0.026121072 0.49269238 -0.08239693 0.23702653
000240 04 cc 9d bd cd d7 ab 3d 75 a1 35 bd 73 15 84 3d
       -0.077049285 0.0839077 -0.04434343 0.064494036
000250 31 be 6b 3c e1 67 52 3f 06 23 0f bd 20 ef 37 3e
       0.014388607 0.82189757 -0.03494551 0.17962313
000260 39 b2 4c 3d e9 e0 08 be f2 24 62 3c 2b d6 8a ab
       0.049974654 -0.13367046 0.013802754 -9.864933e-13
000270 9b 70 03 3e cc 08 07 3c 57 f0 fa 3b b6 0d 89 2b
       0.12835924 0.008241843 0.0076580453 9.738241e-13
000280 7e 86 c5 bc e3 fb 81 bb 5d 2e f5 3c 7d 5b b3 bd
       -0.024111982 -0.003966795 0.029929334 -0.087576844
000290 6d b1 fd be 3e c1 cd 3d be 79 c3 bc 60 c3 56 bc
       -0.49549428 0.10046624 -0.023861762 -0.0131081045
0002a0 6d 17 ae bd f3 98 21 3e 83 9c 74 bd c7 62 df 3b
       -0.08500562 0.15781002 -0.059719574 0.006817195
0002b0 55 bc 15 be 19 84 27 3e 29 0c e5 bb 4b 93 54 bd
       -0.14622624 0.16358985 -0.006989975 -0.051898282
0002c0 22 f2 a8 3d 14 7e 51 3e 8a be 16 be 5b 8e 5f 2b
       0.08249308 0.20458251 -0.14721122 7.9423073e-13
0002d0 70 35 89 bd 40 65 5c bd b4 fc 13 3d a9 2d e9 2b
       -0.066996455 -0.053807497 0.03612967 1.6568319e-12
0002e0 0b 87 25 be 64 7e ba bc 8c e5 14 bf 04 65 24 3b
       -0.16164796 -0.022765346 -0.5816276 0.0025084624
0002f0 b2 b7 df 3d 12 c0 b4 bd c1 7d 21 be aa 66 1b 3d
       0.10923709 -0.08825697 -0.15770628 0.037939705
000300 02 44 2c bd 79 39 18 3d 3c 9a f0 3e 9d bb 36 bd
       -0.042057045 0.037164185 0.4699267 -0.044612516
000310 94 d8 fe bb 67 4f 53 3c 60 17 16 bd 13 9b 74 bc
       -0.007777283 0.012897349 -0.036643386 -0.014929551
000320 5d dd 29 3c f6 87 3b bd a1 11 c2 3c 34 df aa aa
       0.0103677185 -0.04578396 0.023690047 -3.0352945e-13
000330 66 20 8e bd 69 dc 17 bd af d4 b0 bc 59 1f 42 ab
       -0.06939773 -0.037075434 -0.02158579 -6.896615e-13
000340 e8 3b ab 3d 0e ee ba 3c c8 2c 17 3c 80 27 7e bc
       0.083610356 0.022818591 0.009226985 -0.015512347
000350 1d 23 0e 3d d1 8b 0b 3c 50 7e 51 bc 16 98 37 3d
       0.034701455 0.008517222 -0.012786463 0.044822775
000360 df 92 19 3f 3a 05 8e 3d c6 9d 88 be 0a 89 1f be
       0.5998973 0.06934591 -0.26682872 -0.1557962
000370 31 1a 5b 3d 05 fd ee 3d 82 80 13 bd 1d 39 2d 3d
       0.053491775 0.116693534 -0.036011226 0.042290796
000380 17 47 e8 bd 28 e7 a8 3c 87 16 dc 3e 92 dc 13 2c
       -0.11341684 0.020618036 0.42985937 2.1012398e-12
000390 46 a1 16 3e 30 34 2c be 6a 97 a3 bd bf 54 ec aa
       0.14709958 -0.16816783 -0.07987864 -4.1980826e-13
0003a0 3d da 5f 3f a5 1c 29 bd c5 07 3b 3e 15 aa a3 3d
       0.8744238 -0.041287083 0.18264683 0.07991425
0003b0 d1 82 62 3d 88 0e 9d 3d ba 07 ae 3d a5 4b 37 3d
       0.055300537 0.07668787 0.084975675 0.044749875
0003c0 78 df 6c bc 34 35 a2 3e b5 0a 88 3d bb 3b d7 bd
       -0.014457576 0.31681216 0.06642667 -0.105094396
0003d0 0e 71 43 3e ed a4 1f 3e 33 6d 93 3d b8 8e 40 be
       0.19086096 0.15590258 0.071985625 -0.18804443
0003e0 65 ec ac 3c 15 a7 02 3d 15 f5 ef bc ee cf 5e ab
       0.021108815 0.031897623 -0.029291669 -7.9158804e-13
0003f0 71 fc 37 bc 95 7b 87 be 11 8f ea bc 76 46 db aa
       -0.01122962 -0.26461473 -0.028632673 -3.8951107e-13

767 f4 [24]
000000 c9 a7 14 be 02 51 f9 bb ad 31 3d 3e d7 af be 3e
       -0.1451713 -0.007608534 0.18475981 0.3724353
000010 66 2d 23 3e 5e 0b 81 3d 56 97 88 bd fc ab 33 3e
       0.15935287 0.06300996 -0.0666949 0.17546076
000020 ef b6 28 3e 93 b0 08 bb a4 e9 89 3d ab 09 10 3d
       0.16476034 -0.00208572 0.067340165 0.03516547
000030 21 c2 9d 3e 29 9e 21 3e 98 fb d6 3c 41 04 29 3e
       0.3081217 0.1578299 0.026243016 0.16505529
000040 dc 15 d0 3e 22 e2 2f 3e 8b 84 01 3e df 82 0c 3e
       0.40641677 0.17176107 0.12648217 0.13721798
000050 9b 6a be 3e 5e 66 f8 bc 1a 17 85 3d 27 5c e8 3d
       0.3719071 -0.03032225 0.06498547 0.11345702

769 f4 [24, 24, 1, 1]
000000 da c8 da 3d d5 2a f2 bb 37 56 fb 3d 3a 7d fd 3d
       0.10682841 -0.00739036 0.122723036 0.12377401
000010 8f 79 90 3c ed 13 9a 3d 4c 33 58 3d 9c 55 93 3d
       0.017636089 0.07523332 0.052783296 0.07194063
000020 08 77 a3 bb f2 4a 29 ba 96 c2 e0 3c 52 51 ea 2a
       -0.004988555 -0.0006458006 0.027436536 4.1623177e-13
000030 55 a7 87 3d 94 a0 04 3d 63 0b 05 3c e3 27 60 a9
       0.06623713 0.0323797 0.008120391 -4.9772588e-14
000040 4d 79 34 3e 22 e6 c4 3d f3 52 16 3c 66 dd 27 bc
       0.17624398 0.09614207 0.00917505 -0.010245657
000050 ba 26 a2 bc 10 89 f7 3c 56 e0 17 3d 84 3e 3e 3b
       -0.019793857 0.030216724 0.037079178 0.0029028961
000060 af 10 c5 3d 9e 6b 60 bc 15 9e 44 3d cf 34 e2 3c
       0.09622323 -0.013697533 0.04800232 0.027613072
000070 df 57 36 3e 57 31 c1 3e 72 2f 77 3d 2f 82 92 3a
       0.17806958 0.37732956 0.06034798 0.0011177714
000080 1e 50 30 be b9 8d f5 bc 86 c9 7c 3d 31 ba 64 ab
       -0.17218062 -0.029974805 0.061715625 -8.1260264e-13
000090 70 f5 b8 bc eb 7c 2a 3d 94 93 c8 be 24 2e 20 29
       -0.022577971 0.041623037 -0.39175093 3.5567157e-14
0000a0 a3 9f 05 3e 1e 52 e7 3c dd c5 01 3d 92 14 91 be
       0.13049178 0.028237399 0.031682838 -0.28336006
0000b0 3d d6 93 bd ef 67 18 3e 6c c9 26 3e f0 e1 0b be
       -0.07218597 0.14883398 0.16287774 -0.13660407
0000c0 ff 77 7b 3d cb b5 0a 3c f6 7f 8a 3c 76 9b df 3b
       0.061393734 0.008466194 0.01690672 0.0068239523
0000d0 d9 ce bd 3d f6 65 1b be b0 81 f4 be 89 92 70 bd
       0.09267969 -0.15175614 -0.47755194 -0.058733497
0000e0 af 07 e9 3c f1 d2 9a bd f5 92 8a 3c 79 98 67 2b
       0.028446047 -0.07559765 0.016915778 8.2279284e-13
0000f0 52 ae 35 bc 13 22 0c 3d e1 60 d9 3c 03 01 29 2a
       -0.0110889245 0.034212183 0.026535453 1.5010566e-13
000100 ab 03 a6 3c d1 32 c9 bd a8 77 cc 3c 46 f3 34 3c
       0.02026542 -0.098241456 0.0249594 0.011044329
000110 84 ea 3a 3d c9 b3 48 be 74 7f c6 bd 25 42 f3 bb
       0.045633808 -0.19599833 -0.096922785 -0.0074236565
000120 70 6e cc 3e dc d8 32 bf 59 bf 91 3d eb 76 fb 3d
       0.39928007 -0.6986215 0.07116575 0.12278541
000130 58 06 ba 3e 4d ee 09 3e 7d e5 00 3f ac 9f 7e be
       0.36332965 0.13469811 0.5035017 -0.24865597
000140 a0 7e 9d 3d 47 76 30 bf 83 ea 1b be 23 9e 88 2b
       0.076901674 -0.68930477 -0.15226178 9.707273e-13
000150 6a 78 ca 3d 6a 4d d1 3e 65 86 60 3d ad 68 a6 ab
       0.098862484 0.40879375 0.05481567 -1.1824063e-12
000160 ae 73 f7 3d ba ae d9 3d b4 ed 22 be da 57 33 bc
       0.12082611 0.106290296 -0.15910989 -0.010946238
000170 ef ac 09 bf 5b 85 d1 3e c1 72 03 3f ce 37 37 bf
       -0.537795 0.40922055 0.51346976 -0.71569526
000180 c5 a3 5c be b2 fd 30 bb cc f3 fb bd c7 05 28 be
       -0.21546848 -0.0027006683 -0.1230236 -0.16408454
000190 03 c0 60 be ba b6 c5 bc d8 93 6d be 45 88 9c bd
       -0.21948247 -0.024134982 -0.23200929 -0.07643179
0001a0 eb 0e 76 3c 31 11 43 bd 18 62 14 be 97 98 3f 2b
       0.015018205 -0.047623817 -0.14490545 6.806859e-13
0001b0 cf fc b0 bd 6d 79 61 bd 0f b5 ea bc 9c 95 91 2b
       -0.086419694 -0.05504744 -0.028650789 1.0344395e-12
0001c0 79 c7 90 be bc 52 ae bd 12 2d b9 bd 74 d8 19 3b
       -0.28277186 -0.08511874 -0.090417996 0.0023474963
0001d0 1d d4 3a bd fe 51 03 3d 7f a3 d3 bd eb fe 4d bd
       -0.045612443 0.032060616 -0.10333919 -0.050291937
0001e0 16 25 ce bd 76 eb 98 bb a2 af 13 be be 02 ed bd
       -0.10065667 -0.004666741 -0.14422467 -0.11572789
0001f0 bd 72 01 bd 92 7c 00 bd c4 92 af bc f8 de a1 bd
       -0.031603564 -0.0313688 -0.021432288 -0.07903856
000200 05 8a 98 bb e5 bc 81 bc cd 10 ed bc 0c 2b c2 29
       -0.004655125 -0.015837142 -0.028938675 8.622798e-14
000210 88 75 9a bd 17 0b f4 bc f1 0a 4c 3b c0 47 95 29
       -0.075419486 -0.029790444 0.0031134451 6.629376e-14
000220 2e 56 27 be 3b 60 df bd a0 d6 4e ba 72 3b 0c 3c
       -0.16341469 -0.109070264 -0.0007890258 0.008559095
000230 08 95 08 3c e9 1c 45 bd 28 0f bd bc cb a3 d0 3b
       0.008336313 -0.048123274 -0.023078516 0.006367182
000240 65 53 a9 3d d3 fa 6d 3e 8e 81 ef 3d 15 a6 85 3d
       0.08267859 0.23240213 0.116946325 0.06525818
000250 64 7f a5 be a7 e4 9a 3e 13 b3 b7 be 9c ac 64 3d
       -0.32323754 0.30252573 -0.3587881 0.055828676
000260 3b d4 2d be 88 ed 22 3e 36 b2 ba 3d 8d e9 13 2b
       -0.16975491 0.15910923 0.09116022 5.254901e-13
000270 33 0c 95 bd 32 27 04 bf 7d e4 8e be e3 93 b0 2b
       -0.072777174 -0.5162231 -0.27908698 1.2546599e-12
000280 23 e1 1e 3e 7f 58 a9 3d 15 73 46 3e 99 a7 02 be
       0.1551557 0.082688324 0.19379838 -0.12759246
000290 6a 45 ad 3e 8d 70 eb 3d bd 5f cd be 9c e8 92 3e
       0.3384202 0.11496077 -0.40112105 0.28693092
0002a0 05 e2 44 3d 84 b2 56 3e b7 91 fb 3d e2 0d c5 3d
       0.04806711 0.20966536 0.12283652 0.096217886
0002b0 83 10 0e bd 0d a9 0d 3d e0 1c b1 3c 84 0d 08 3e
       -0.034683716 0.034585048 0.021620214 0.13286406
0002c0 1d e7 b7 be cf 38 17 3e 3f a4 5f bc 71 ab 64 ab
       -0.35918513 0.14767765 -0.013649999 -8.1239795e-13
0002d0 44 5d e1 3d 4f 59 88 be c6 15 92 be 8e 3d 47 2b
       0.11004117 -0.26630637 -0.28532237 7.0784426e-13
0002e0 f2 51 82 3c c3 66 53 3d 64 36 09 3e db a2 98 be
       0.015908215 0.051611673 0.13399655 -0.2981175
0002f0 8a 6b 6b 3e 8f 63 42 3e 1d fa 04 3d 9d 63 29 3e
       0.22990242 0.18983291 0.03246509 0.16541906
000300 a6 8c 0d bd 4d 78 0c 3c 60 bb 04 3d 77 e8 9c bd
       -0.03455796 0.008573604 0.032405257 -0.07661527
000310 36 c2 14 bf 33 ec 34 be 88 a9 4e 3e e6 56 8c bd
       -0.5810884 -0.17668228 0.20181859 -0.06852512
000320 8a 10 f8 3b 91 c6 49 bd 8c a6 a6 bb b1 c0 59 ab
       0.007570331 -0.049261633 -0.005085772 -7.73613e-13
000330 ef 7c b8 bd 5f 73 cb bd f4 69 4f bb f2 e1 d0 a7
       -0.09008204 -0.09934115 -0.0031648846 -5.7976568e-15
000340 c5 56 5f bd ea 6f 1c 3e 27 54 16 3e 38 6d 32 bb
       -0.05452611 0.15277067 0.14680539 -0.0027225744
000350 11 57 b1 bd a5 2e d1 bd 44 44 a6 bd 34 e9 a1 3d
       -0.08659185 -0.10213975 -0.081184894 0.07905808
000360 54 78 d1 3c 77 28 0c 3e 32 da 9a 3d 04 0a 5e 3d
       0.025570072 0.13687311 0.07561149 0.05420877
000370 1c 77 56 be ab 30 c6 3d 5b 76 88 be 92 a0 b5 3d
       -0.20943874 0.096772514 -0.26652798 0.08868517
000380 77 7d 10 3e 79 d8 81 bc eb af 73 bb ec 49 26 ab
       0.14110361 -0.015850293 -0.0037183713 -5.9077634e-13
000390 0e 0d 20 3d ab 77 6a 3d e8 be 8c 3d a6 10 9b aa
       0.03907495 0.05724303 0.0687235 -2.7545083e-13
0003a0 fd 25 57 3d 91 aa 02 3d 68 4f 94 bc 94 bf e7 3d
       0.052526463 0.031900946 -0.01810427 0.113158375
0003b0 bb 16 80 3c ca 4d 12 3e 88 60 80 be 0d 92 23 3d
       0.015635839 0.14287487 -0.25073647 0.039934207
0003c0 1d 6e 2a 3d 4f 2f 47 3d e2 cb 32 bd d6 c6 91 3d
       0.04160892 0.0486291 -0.04365147 0.07118003
0003d0 90 38 ca 3d 9a 3e 86 3d 56 f4 95 bd f0 ea 86 3d
       0.0987407 0.06554909 -0.07321994 0.065877795
0003e0 08 ee 34 3e 6e be 6d 3d 73 eb 94 bd 7c 44 7c 2a
       0.17668927 0.058042936 -0.07271471 2.2405856e-13
0003f0 21 4b d6 3d 45 e1 e5 3c b9 08 1d be ef 27 a1 ab
       0.104635485 0.028061518 -0.15335359 -1.1450822e-12

770 f4 [24]
000000 37 43 b5 be 64 61 82 be 24 be da 3e d0 14 5f bf
       -0.35402843 -0.25464928 0.4272319 -0.8714113
000010 00 75 4e 3f 8d 08 67 3f 86 75 58 3d 80 0f 7b 3b
       0.8064728 0.9024742 0.052846454 0.00383088
000020 72 92 fd 3e 18 b3 a7 bd d1 cf cf be 4c 06 b5 3d
       0.4952579 -0.08188456 -0.4058824 0.08839092
000030 20 a3 cf 3e b6 e6 e2 bd e8 94 8c be d9 bb 90 3f
       0.40554142 -0.11079161 -0.27457356 1.1307327
000040 34 bc 80 3d 37 70 6c be c7 5a 84 bf a5 3e e5 3d
       0.06285897 -0.23089682 -1.0340203 0.11193589
000050 a8 0d ff 3c 16 f5 b4 3f 8c 62 cc 3e ce f4 26 bf
       0.031134441 1.4137294 0.39918935 -0.6521729

772 f4 [24, 1, 3, 3]
000000 ce 54 c7 bd a7 e7 e1 3f 83 98 e1 bd 51 0a 0a bf
       -0.09732972 1.764882 -0.110154174 -0.5392199
000010 ac b6 b1 3e 1c 91 41 c0 b2 78 d0 be ee ba 98 3f
       0.3470968 -3.0244818 -0.40717083 1.1932046
000020 8c 6d 68 3f 16 3b ba be 08 de d0 be f0 f0 9e be
       0.90792155 -0.36373204 -0.40794396 -0.31043196
000030 a1 98 87 be 58 ad 42 bf 1f da f3 be ad 5b 80 3d
       -0.26483634 -0.7604575 -0.4762735 0.06267486
000040 b7 32 8b be 59 1a 1c be fc 80 28 3d 52 95 24 3e
       -0.2718713 -0.15244426 0.041138634 0.16072586
000050 1b 64 f3 3d de ce 92 3e 46 75 07 3f f6 71 a6 3e
       0.11884328 0.28673452 0.5291332 0.3250882
000060 0d a2 6e 3d ab e9 0c 3f b6 c8 d1 3e 87 dd cb 3d
       0.058260012 0.5504405 0.40973443 0.09954362
000070 7e c9 bf 3d a6 4e 2a 3d 2d 1e 24 3e 1a 65 7e 3e
       0.093646035 0.04157891 0.16027136 0.24843255
000080 4f 93 5f 3e 2b 04 e1 3d 28 f5 99 3e 84 21 0a 3e
       0.21833538 0.10987123 0.30069852 0.13489348
000090 5a 8d 0c 3e 82 49 bb 3f 50 0a d7 bf 5a a6 1b bf
       0.13725796 1.4631808 -1.6800022 -0.6080071
0000a0 03 b6 de 3f 1c 4b 0d c0 d2 cd c2 be 60 39 b2 3f
       1.7399296 -2.2077093 -0.38047653 1.392376
0000b0 19 17 86 bf 76 5b f7 3e 30 11 83 bf a8 3a f9 3f
       -1.0475799 0.48311967 -1.023962 1.9471025
0000c0 ad 83 a7 3e 37 f1 83 c0 c0 df d7 3d 5d 56 a3 bd
       0.32717648 -4.123195 0.10540724 -0.07975457
0000d0 87 75 a6 bf ae b1 15 40 fe f6 d9 bd f0 3e b6 be
       -1.3004616 2.3389697 -0.10642813 -0.35594893
0000e0 3c e0 58 be 53 e0 33 be b6 48 00 bf 9d 24 d8 be
       -0.21179289 -0.17566042 -0.5011095 -0.42215434
0000f0 9f 6c 31 be fd 41 f9 be ae 35 05 bf e5 eb a7 be
       -0.17326592 -0.48683158 -0.52035034 -0.3279716
000100 8e 5f d6 be 19 20 3f be a2 4e 01 bf b5 3d fe be
       -0.41869777 -0.18664588 -0.5051061 -0.49656454
000110 82 b6 3c be d9 be 91 be c5 23 d4 be f3 6b 9f be
       -0.18428996 -0.28465918 -0.4143354 -0.31137046
000120 65 15 48 3c 33 e1 ba 3b b6 12 1c be dc b4 b8 be
       0.012212132 0.0057031154 -0.15241513 -0.36075485
000130 70 4f 35 bf 9c ab d0 be 08 c1 6e be 92 1e 26 bf
       -0.70824337 -0.40755928 -0.23315823 -0.64890397
000140 27 e8 10 bf 9b 3d 1f 3e b4 d5 ac 3e 33 06 2b 3e
       -0.56604236 0.15550844 0.33756793 0.16701584
000150 52 0f 7e 3e 93 79 ea 3e 83 5d bf 3e f7 a6 eb 3d
       0.24810532 0.4579588 0.3737603 0.115064554
000160 05 56 c3 3e 96 d6 9d 3e b4 63 0d be 92 d9 24 be
       0.38151565 0.3082778 -0.13807565 -0.16098621
000170 97 fa 81 be 60 5b d7 be b3 df 2b bf 15 e7 d3 be
       -0.25386497 -0.420619 -0.6713821 -0.4138724
000180 77 74 15 bf 45 67 fc be e4 5f 86 be 73 83 bc 3d
       -0.58380836 -0.49297538 -0.26245034 0.092047594
000190 f8 32 81 3f 11 ba 53 3f 72 1f f6 bd dc 5a 86 3f
       1.009368 0.8270579 -0.120177165 1.0496478
0001a0 48 12 6d 3f 45 f9 98 3e 6d 84 4d 3f 4b bb 1b 3f
       0.9260602 0.29877678 0.8028019 0.6083266
0001b0 9c 13 4a 3e fa b4 f3 3e b0 9c cb bd 57 58 b3 3e
       0.19734043 0.47599012 -0.09941995 0.35028335
0001c0 d1 ed e6 3e 8c 2f a2 be 75 9c d3 bd 8a 5b ef 3d
       0.45103315 -0.316769 -0.10332576 0.116873816
0001d0 b8 49 16 bf fc cd 63 bd 92 0d 41 be ce 60 49 be
       -0.58706236 -0.055616364 -0.18852833 -0.19665834
0001e0 9a 98 11 bf 98 98 56 bf 91 87 4e bf 86 92 da be
       -0.56873477 -0.8382659 -0.8067561 -0.42689914
0001f0 f0 55 3b bf 0c 50 1a bf 7e 72 81 3d 2d 6d 3f be
       -0.73178005 -0.6027839 0.06320666 -0.18693991
000200 ff f5 e9 3d 80 7c b0 be b9 b5 43 bf 0a e0 1d bf
       0.11423873 -0.34469986 -0.7644916 -0.6166998
000210 c6 f6 fe be 01 85 83 bf 03 0d 65 bf fc c4 95 3e
       -0.49797648 -1.0274965 -0.8947298 0.2925185
000220 b6 0e 55 3e 11 a1 f8 3e 57 08 25 bd dd 4a cf bf
       0.20806393 0.48560384 -0.040291157 -1.6194721
000230 e1 0b bc bf ea b8 00 3f d6 f8 52 3f 77 92 bf 3f
       -1.4691125 0.50282156 0.82410944 1.4966573
000240 2c c6 de bc e9 3e 7d 3e 1c 1d 47 3e ed f6 58 3e
       -0.027194105 0.2473103 0.19444698 0.21187945
000250 54 ef 24 3f 50 64 e7 3e bd 2b ab 3e d2 89 a9 3e
       0.64427686 0.4519372 0.33431807 0.3311296
000260 22 7e 1e 3f ae ae 18 c0 32 42 b3 c0 2d 34 d5 c0
       0.61911213 -2.3856616 -5.6018305 -6.662619
000270 f5 1d c1 c0 19 cc 5b c1 27 84 41 c1 f6 d3 8c c0
       -6.034907 -13.737329 -12.094764 -4.400874
000280 37 51 3d c1 53 cd 56 c1 b5 84 a2 3c 16 9c fe bd
       -11.832328 -13.425128 0.01983867 -0.12432115
000290 d8 a6 d4 bd da 68 2e be 3a 9f 79 be b8 9a b9 be
       -0.103833854 -0.17032185 -0.24377146 -0.36250854
0002a0 2d ae 42 bd 71 a7 ef be 86 bd 06 bf 3e 18 87 be
       -0.04752939 -0.46807435 -0.5263294 -0.26385683
0002b0 3c 63 84 bf 6b e0 48 bf 9d 08 e9 be 1c e6 8e bf
       -1.0342784 -0.78467435 -0.45514384 -1.1163974
0002c0 28 cf 8a bf 7a 1e 85 be fe f3 81 bf f8 aa 34 bf
       -1.0844469 -0.25999814 -1.0152586 -0.7057338
0002d0 fc a7 9f be 1d 3e 5f be e5 35 95 bd fb d0 ad be
       -0.3118285 -0.21801038 -0.0728567 -0.33948502
0002e0 24 5c c4 be 20 79 68 be 0f 38 2c be 88 a5 99 be
       -0.38351548 -0.22702456 -0.1681826 -0.30009103
0002f0 12 3a 8f be 6c e2 25 3e b7 87 32 be 55 a7 ae be
       -0.27973992 0.16199654 -0.17434584 -0.3411204
000300 86 d5 f7 3b 54 f3 1c bf 04 0b 6d bf 13 17 2e 3e
       0.007563296 -0.6130879 -0.92594934 0.1700099
000310 ce c7 24 bf 39 8a 7d bf b9 5d 60 bf 68 1d 16 c0
       -0.6436738 -0.99039036 -0.8764301 -2.3455448
000320 dc 61 c6 bf d1 7b ba be 05 86 1f bf 0f c3 51 be
       -1.5498614 -0.3642259 -0.6231387 -0.20484565
000330 a2 78 1c 3f 02 c1 1e 40 7b cb 0e 40 f1 d0 95 3d
       0.6112157 2.4805303 2.2311695 0.07315243
000340 34 85 03 3d f6 fd b7 bd 2b c0 16 3e 6d 11 ec 3e
       0.032109454 -0.08983986 0.14721744 0.46107045
000350 0a 13 9e 3e 64 e4 19 3e 58 f0 13 3f ef ef 20 3f
       0.308739 0.1502853 0.5778861 0.6286611

773 f4 [24]
000000 28 0f 88 bc c2 61 37 3f 86 3e 7d be 9f 32 4b bd
       -0.01660879 0.7163354 -0.24730882 -0.049608823
000010 f7 e8 d9 3d df 8b 1a 3f c2 b3 1b 3f 6f 9e 34 3f
       0.10640138 0.60369676 0.60821164 0.7055425
000020 66 01 64 3e f1 db 1d bf 49 33 bc 3d 9b 07 3e bd
       0.22266158 -0.6166373 0.09189469 -0.046393972
000030 9b ea f8 bd 7b 15 bc 3e 78 5c cf 3e ef 9f e2 bd
       -0.121541224 0.36735138 0.40500236 -0.11065661
000040 45 9e 41 bf f9 95 de 34 77 2b 81 3e 85 1d 91 3e
       -0.75632125 4.1459842e-07 0.25228474 0.28342834
000050 0d a7 08 3f 22 87 25 3f 53 e2 16 3e f2 78 0c bd
       0.533799 0.6465932 0.14734773 -0.03429503

775 f4 [24, 24, 1, 1]
000000 92 45 01 3d 83 6f ac bc ad 07 80 3d a1 b5 5b bc
       0.031560488 -0.021049267 0.06251464 -0.013410003
000010 37 aa 1d bc 8a 20 84 bc 6d 30 a8 bd 6e fd 3e bd
       -0.009623102 -0.016128797 -0.082123615 -0.046628408
000020 53 d4 26 bd de 8a 52 3d c8 a5 aa 3d d0 f6 89 bc
       -0.040729832 0.051401965 0.083324015 -0.016841322
000030 f6 da 18 bc cc fd 2a be 22 c7 1d bd c6 32 a0 bc
       -0.009329548 -0.16698378 -0.038519986 -0.01955546
000040 b1 29 a1 3d b7 60 71 bd 35 13 58 3e 46 20 01 be
       0.0786928 -0.058930125 0.21101077 -0.12609968
000050 18 27 81 bd e7 98 c7 bd cc d6 5e 3d fd 72 9f 3c
       -0.06306285 -0.09745961 0.054404065 0.01946401
000060 9d 63 fe 3b df 45 cc bd 8f 93 8b bd 1e d3 3b bd
       0.0077633397 -0.09974264 -0.06815254 -0.045855634
000070 1b 67 20 bd a1 ae 2a 3b eb 0b 12 3d 22 14 b7 bd
       -0.03916083 0.0026044028 0.035655897 -0.08939387
000080 ec 21 58 3d db 6f 4a bd c7 23 10 3e b9 f2 ed 3d
       0.052766725 -0.04942308 0.14076148 0.11618561
000090 de f7 66 3c 63 23 4a bc 78 6b 94 bd fc 2e 93 bc
       0.014097182 -0.012337538 -0.072470605 -0.01796674
0000a0 ec c0 5c 3c 60 29 93 bd 3f a5 ca bd 0e 17 b7 3d
       0.0134737305 -0.07185626 -0.098947994 0.08939944
0000b0 fd a4 09 3e 98 96 2d 3c 75 ac 29 bf c0 be 66 3c
       0.13441844 0.010594986 -0.66278774 0.014083564
0000c0 4f 4e 65 be 30 a5 6b bc 19 83 72 3e 51 7a 8e 3c
       -0.22393154 -0.0143826455 0.23682822 0.01739231
0000d0 78 98 4c 3e 8e 31 a3 be 4b 96 82 3d 23 6e 3b bd
       0.19980037 -0.31873745 0.06376322 -0.04575933
0000e0 ef 21 36 be 3d a0 f4 bd b2 af 10 3e e8 9e 0d be
       -0.17786382 -0.119446255 0.14129522 -0.13830149
0000f0 62 fb 18 3b 25 c5 20 3d 1b 97 af 3c a0 24 54 bd
       0.0023343195 0.03925051 0.021434357 -0.05179274
000100 91 7c 5e bc be 8a 01 bc 79 e9 b4 bd 5b 12 31 bc
       -0.013579504 -0.007906614 -0.08833594 -0.010807599
000110 ab 6d d9 3d 8b 42 9d 3d 42 b2 85 3d 96 a8 5a 3d
       0.10616621 0.07678708 0.065281406 0.053383432
000120 d9 6e 94 3b 0f 68 bd 3d 78 c8 c4 3d 26 66 93 bd
       0.0045298156 0.09248363 0.09608549 -0.07197218
000130 6d 6b b2 3c d6 5b 0b bd 1d ca 3c be 99 4c c3 bc
       0.02177974 -0.03402313 -0.18436475 -0.023840236
000140 e4 cf ba be 26 7c ac 3e 3f f1 a8 3e a4 3c f2 bc
       -0.36486733 0.33688468 0.32996556 -0.029569931
000150 05 d9 f0 bd 2a 6f 82 be 2a d4 ed bd 96 1f e8 ba
       -0.11760143 -0.25475436 -0.11612733 -0.0017709609
000160 56 03 4f be 06 3f e3 bd bf d2 86 3d 7e 08 53 be
       -0.20216116 -0.11096005 0.065831654 -0.20608708
000170 e6 be ac be f8 28 a8 3d 30 d5 6c 3e d6 ec 75 3d
       -0.33739394 0.08210939 0.231282 0.060040317
000180 83 3b c9 3c ed 2e 8b 3e c0 41 b6 bb 65 01 8d 3e
       0.02456451 0.2718424 -0.005562037 0.27540126
000190 0e 00 18 bc 1d 90 07 bc 59 40 8f 3e 93 d7 da 3e
       -0.009277357 -0.008274105 0.2797878 0.42742595
0001a0 0f b8 0c 3d f6 c1 94 3e c9 16 36 bd a7 d9 0c bd
       0.03435522 0.2905423 -0.044455323 -0.034387257
0001b0 bb 60 81 be 9b fd d2 bc 77 84 86 bb 10 a7 10 3c
       -0.25269112 -0.025755694 -0.0041051465 0.008828893
0001c0 7a b6 bb 3e 2a b7 d2 3e 10 9a 1b 3d 46 54 c8 3d
       0.36662656 0.41155368 0.037988722 0.09781699
0001d0 e4 f5 a3 be a5 53 a9 3d fe 05 bb 3b 47 93 7a b8
       -0.32023537 0.08267907 0.0057075014 -5.9741807e-05
0001e0 42 fa 89 bc ef d0 8d 3e be 16 3e bd fb c5 ab 3c
       -0.016842965 0.27698466 -0.046408407 0.020968428
0001f0 96 16 21 3d 44 03 95 3c db 2a f3 bd 6b 3f 9c 3e
       0.03932818 0.018190034 -0.118734084 0.30517134
000200 37 c7 fc 3c 05 1b 94 3d 7a f7 b0 3e 42 bd 56 be
       0.030856712 0.07231716 0.3456381 -0.20970634
000210 23 b4 24 3c 37 85 a7 3d 7f 14 7f 3c fe bf 6e 3d
       0.010052714 0.081797056 0.0155688515 0.058288567
000220 06 70 be bd 7e 2a bd 3d 6c f3 8e bc 76 5a 96 bd
       -0.092987105 0.0923662 -0.017450057 -0.07341473
000230 79 ff 34 be 22 53 25 be ce 5b 3e 3e 5d a8 8f bd
       -0.1767558 -0.16144994 0.18589708 -0.070145346
000240 19 5b 08 3f 02 d0 28 3e 1d 6d 2b 3e 3e 23 8b bd
       0.53264004 0.16485599 0.16740842 -0.06793831
000250 84 76 78 be b4 26 00 3d 7d a4 9c 3d 00 26 85 3e
       -0.2426396 0.03128691 0.07648561 0.26005554
000260 67 8c 66 be 71 15 03 3e 63 1e 46 3d d0 b2 e4 3d
       -0.22514497 0.12801148 0.048368823 0.11166918
000270 4b ed ad 3d 28 2d 8c bd 4c 8b 31 3d be 8f 41 be
       0.08492526 -0.0684455 0.043345734 -0.1890249
000280 26 93 8b bd 00 26 73 3d 5a bb 38 3e b3 42 28 be
       -0.06815176 0.05936241 0.18040219 -0.16431694
000290 b7 36 8a 3d 46 cf 71 3c 7e 15 02 bd 99 c7 36 bc
       0.06748717 0.0147588905 -0.031758778 -0.011155986
0002a0 0c 00 32 be 1a 48 b1 3d 97 81 6d 3c 99 3b 1f bb
       -0.1738283 0.086563304 0.014496229 -0.0024296998
0002b0 61 4d 0e 3e 9c 3e 44 3e 20 4b 59 3d 37 0b 0f 3e
       0.13896705 0.19164509 0.05305016 0.13969122
0002c0 df 59 15 be d6 6d 0a bd f1 55 9f be c6 25 8c 3e
       -0.14585064 -0.033796154 -0.31120256 0.2737257
0002d0 77 4c a0 3d 0f b8 ff 3c c7 69 ba bd 25 26 e9 3e
       0.078270845 0.031215696 -0.09102207 0.45536914
0002e0 15 a6 15 bd c1 9a 1d 3d ba 97 ef 3c 17 63 db bd
       -0.03653534 0.038477663 0.029247154 -0.10712259
0002f0 9c 9a 2d be 44 6b 22 3d 37 dd db bc d4 2f ce bc
       -0.1695351 0.039653078 -0.026838882 -0.02516929
000300 16 fd 47 3c 2b 9c 85 bd d9 17 ff bb 2a 25 cb 3e
       0.0122063365 -0.06523927 -0.0077848253 0.3967679
000310 99 30 0f bd 06 66 1a 3a 36 d8 71 3e d1 c8 d7 3e
       -0.034958456 0.00058898365 0.23617634 0.42145398
000320 71 db e5 3c 39 93 97 bd 95 be 2a 3c 53 b7 7c bd
       0.02805874 -0.07401127 0.010421415 -0.06169827
000330 b6 1b 21 3d a8 1e a4 ba f0 55 7f bc 33 87 c7 bb
       0.039333068 -0.0012521343 -0.015584454 -0.006089115
000340 d9 44 d2 3e b1 5b bf 3e 9d 1b e4 bc 5f 22 cf bc
       0.41068152 0.37374642 -0.027845198 -0.025284944
000350 69 37 92 be 28 a5 bf bd 0e d4 f2 3b 9a 41 8c 3c
       -0.285579 -0.09357673 0.007410533 0.017121125
000360 e2 e4 9c 3d 61 60 21 3e 09 3f 21 bd 0a 9e 67 3d
       0.076608434 0.15759422 -0.039366756 0.056547202
000370 2e 90 0f bc 6b 96 c4 bc 7d fa 01 bd dc 75 82 bd
       -0.008762402 -0.023997506 -0.031733025 -0.06370136
000380 80 2d e3 bc 22 88 36 3e 51 78 01 be 44 7b 9e bd
       -0.027731657 0.17825368 -0.12643553 -0.07738355
000390 20 a2 f9 3c 82 d6 1b bd 35 54 83 be 47 cc 3b bd
       0.030472815 -0.038046367 -0.25650182 -0.04584911
0003a0 34 94 b8 3d ad 85 87 bd 4b 91 ca 3c 13 f2 60 bc
       0.090126425 -0.066172935 0.024727484 -0.01372959
0003b0 7c ba f6 3c 59 91 fc 3d 22 9a 5f bd 4a 7f f7 bd
       0.03011822 0.1233241 -0.054590352 -0.12084825
0003c0 e3 79 77 bd d6 0e fd bd 16 76 52 3d b6 49 ad bc
       -0.060418975 -0.12356345 0.051382147 -0.021153312
0003d0 3e 15 66 bc 59 6b d9 3b 13 d5 16 be 0c 27 9f bc
       -0.0140431505 0.0066351113 -0.14729719 -0.019427799
0003e0 e8 88 e8 bc a7 a8 e2 3c b1 5f d9 bc c1 85 e6 3c
       -0.028385594 0.02766831 -0.026534887 0.02813995
0003f0 60 3e 95 3c e7 c7 33 be 74 ac 18 be 0c 00 64 3d
       0.01821822 -0.17556725 -0.14909536 0.055664107

776 f4 [24]
000000 6b 53 16 3f d7 bb 66 3e 40 7f 3c 3e 55 55 8f bd
       0.58721036 0.22532593 0.18407917 -0.06998698
000010 dd cb 0e 3f 19 d3 a4 3e 76 55 5f 3e f5 c6 67 3d
       0.5577982 0.32192305 0.21809945 0.056586225
000020 ad 1b 7a 3d 4e 35 86 3e ec c6 48 3f 87 ac 9b 3c
       0.06106155 0.26212543 0.7842853 0.019003166
000030 eb 24 26 3f 72 f7 ce 3d b5 ea da 3e a4 b8 f9 3d
       0.6490008 0.1010579 0.42757192 0.121934205
000040 69 f8 ad 3e e3 b7 81 be 1f 79 a3 3e 4a c2 8a 3e
       0.33978584 -0.25335607 0.31928346 0.27101356
000050 0c b0 00 3f d0 51 dc 3d 5c 75 c5 3d 83 a4 af 3d
       0.50268626 0.10757792 0.09641525 0.085763
